…
tus":"ok","timestamp":1646170032135,"user_tz":-540,"elapsed":358,"user":{"displayName":"Ken Takahashi","photoUrl":"https://lh3.googleusercontent.com/a/default-user=s64","userId":"14209840916304094999"}},"outputId":"580d81a3-b489-48ad-91b2-af1cf95bd907"},"execution_count":47,"outputs":[{"output_type":"stream","name":"stdout","text":["Model: \"sequential\"\n","_________________________________________________________________\n"," Layer (type)                Output Shape              Param #   \n","=================================================================\n"," dense (Dense)               (None, 3400)              44200     \n","                                                                 \n"," batch_normalization (BatchN  (None, 3400)             13600     \n"," ormalization)                                                   \n","                                                                 \n"," leaky_re_lu (LeakyReLU)     (None, 3400)              0         \n","                                                                 \n"," reshape (Reshape)           (None, 10, 10, 34)        0         \n","                                                                 \n"," conv2d_transpose (Conv2DTra  (None, 14, 14, 34)       28934     \n"," nspose)                                                         \n","                                                                 \n"," batch_normalization_1 (Batc  (None, 14, 14, 34)       136       \n"," hNormalization)                                                 \n","                                                                 \n"," leaky_re_lu_1 (LeakyReLU)   (None, 14, 14, 34)        0         \n","                                                                 \n"," conv2d_transpose_1 (Conv2DT  (None, 35, 35, 17)       46835     \n"," ranspose)                                                       \n","                                                                 \n"," batch_normalization_2 (Batc  (None, 35, 35, 17)       68        \n"," hNormalization)                                                 \n","                                                                 \n"," leaky_re_lu_2 (LeakyReLU)   (None, 35, 35, 17)        0         \n","                                                                 \n"," conv2d_transpose_2 (Conv2DT  (None, 40, 40, 1)        613       \n"," ranspose)                                                       \n","                                                                 \n"," batch_normalization_3 (Batc  (None, 40, 40, 1)        4         \n"," hNormalization)                                                 \n","                                                                 \n"," leaky_re_lu_3 (LeakyReLU)   (None, 40, 40, 1)         0         \n","                                                                 \n","=================================================================\n","Total params: 134,390\n","Trainable params: 127,486\n","Non-trainable params: 6,904\n","_________________________________________________________________\n"]}]},{"cell_type":"code","source":["tuner = kt.RandomSearch(generator,\n","               
…
